audio_classifier_cnn.pth (torch, 401863 bytes, 10 tensors)

conv1.0.weight f4 [16, 1, 3, 3]
0	0xbdff4574	-0.12464419
1	0x3e201714	0.15633804
2	0x3ea6b632	0.3256088
3	0xbe7f4bb7	-0.24931227
4	0xbe81ba54	-0.2533747
5	0x3d532fd9	0.051559303
6	0xbe21d8c8	-0.15805352
7	0x3e9785ca	0.2959426
8	0xbe8ac8f8	-0.27106452
9	0xbea948b4	-0.3306328
10	0xbdbea0ef	-0.093080394
11	0x3e0f32e4	0.13984257
12	0x3e5ec2b0	0.21753955
13	0x3d5df2f7	0.054186787
14	0xbe76c8bf	-0.24100016
15	0x3e3cf703	0.18453602
16	0xbd5a5f14	-0.05331333
17	0x3e7ddb3d	0.24790664
18	0x3c89eab7	0.016835554
19	0x3dba5466	0.09098129
20	0xbe9ab933	-0.3021942
21	0xbe084ef0	-0.13311362
22	0x3d886982	0.06660749
23	0x3e325605	0.17415626
24	0x3e17ac03	0.14811711
25	0xbe4b49be	-0.19852349
26	0x3e7996ef	0.24373983
27	0xbd0e4d34	-0.034741595
28	0xbe2f42e2	-0.17115358
29	0xbe3b0325	-0.18262918
30	0x3e917409	0.2840884
31	0x3d729777	0.05922648
32	0x3dd51e7b	0.10406204
33	0x3d027ae4	0.03185548
34	0xbe3e7c7a	-0.18602172
35	0x3e78eca1	0.24309017
36	0x3e8d9638	0.2765367
37	0xbe8e24fa	-0.27762586
38	0xbe46f2cf	-0.19428562
39	0xbdae3768	-0.08506662
40	0xbd40d687	-0.04707959
41	0x3ae3d800	0.0017383099
42	0xbea07512	-0.31339318
43	0xbe97870c	-0.2959522
44	0xbe2fb50c	-0.17158908
45	0xbe4969e6	-0.19669303
46	0xbdc3dd57	-0.095637016
47	0xbea4ecf4	-0.3221203
48	0x3e51ba63	0.20481257
49	0xbdb04eac	-0.086087555
50	0xbe50315a	-0.20331326
51	0xbe88630a	-0.2663806
52	0x3e75c4d6	0.24000868
53	0x3e186bc2	0.14884856
54	0x3e82c8a4	0.25543702
55	0xbd42dbf1	-0.047573034
56	0x3e8931cb	0.26795802
57	0x3e521ab6	0.20518002
58	0xbe945444	-0.2897054
59	0xbcc67ac4	-0.024228461
60	0xbcf9474c	-0.030429505
61	0x3dcad600	0.099040985
62	0x3d58da6c	0.05294268
63	0x3e22ce40	0.1589899
64	0x3df38a8c	0.1189166
65	0xbe6a1efc	-0.22863382
66	0xbea0b3fa	-0.3138731
67	0x3e8762b0	0.2644248
68	0xbe3c8458	-0.1840986
69	0xbe15659d	-0.14589544
70	0xbe96bdfe	-0.29441828
71	0x3d825231	0.06363333
72	0x3ea53989	0.32270458
73	0xbd3dd989	-0.046350036
74	0xbe6242b1	-0.22095753
75	0x3e460a09	0.19339766
76	0x3b323367	0.0027191283
77	0x3e66e0ff	0.22546767
78	0xbdd3d8cb	-0.10344084
79	0x3d9a25d2	0.07526745
80	0xbe3fed09	-0.18742765
81	0xbd9ad9da	-0.07561083
82	0x3da2e9a5	0.079547204
83	0xbdd03352	-0.101660386
84	0xbe7fdc84	-0.24986464
85	0x3dfc3345	0.123144664
86	0x3e2ad10b	0.16681306
87	0x3e90fa45	0.2831594
88	0xbd4d045c	-0.050052986
89	0x3e072bc9	0.13200296
90	0xbd21b703	-0.039481174
91	0xbe9f06e1	-0.31059936
92	0x3db74c64	0.08950117
93	0x3da55c39	0.08074231
94	0x3e7b28f4	0.24527341
95	0xbe8cab32	-0.27474362
96	0xbe0a4708	-0.13503659
97	0x3d516581	0.051122192
98	0x3d32bbb4	0.04363604
99	0x3d20a8a7	0.03922334
100	0xbdc1c6b2	-0.09461726
101	0x3d2b57a9	0.041831646
102	0x3e0d300c	0.1378786
103	0x3d2e1338	0.042498797
104	0x3d991304	0.0747433
105	0x3e914357	0.2837169
106	0xbe4b3d2b	-0.19847552
107	0x3e915cc8	0.283911
108	0x3ea2c3d4	0.3179003
109	0x3dbab62e	0.09116779
110	0xbe499718	-0.19686544
111	0xbe90cd07	-0.28281423
112	0xbe992293	-0.2990919
113	0xbe7348a6	-0.23758182
114	0x3dac2cb4	0.08406964
115	0xbd91aad8	-0.07112664
116	0xbdc33bf3	-0.09532919
117	0xbe18bfe3	-0.14916949
118	0xbe4c870a	-0.19973388
119	0xbe28aea8	-0.16472876
120	0xbd104d38	-0.03522989
121	0x3e6e1f37	0.23254095
122	0xbe89a919	-0.26886824
123	0xbe085fc3	-0.1331778
124	0xbc06109b	-0.00818267
125	0xbe907762	-0.28216082
126	0xbe9f2c00	-0.31088257
127	0x3ea8fe32	0.33006436
128	0xbe032c3e	-0.12809846
129	0x3e5d224c	0.21595114
130	0x3ea2d382	0.31801993
131	0xbdf47c49	-0.11937768
132	0x3dcd6990	0.100299
133	0x3ea6cb82	0.3257714
134	0x3ea0fb84	0.3144189
135	0x3e456aaf	0.19278978
136	0xbd34c0a4	-0.04412903
137	0x3df7ec71	0.121056445
138	0x3bf6f5e5	0.007536637
139	0xbd447f68	-0.047973067
140	0x3e5157f7	0.20443712
141	0x3e31f3f8	0.17378223
142	0x3dda9b8b	0.10674199
143	0xbce7a2d0	-0.028275877

conv1.0.bias f4 [16]
0	0x3dba66ed	0.09101663
1	0xbe04dddf	-0.12975262
2	0x3e0214f4	0.12703305
3	0x3e6fbf2e	0.23412773
4	0xbe0abe05	-0.13549049
5	0x3e5c1806	0.21493539
6	0xbe92044a	-0.28518897
7	0x3e125ae2	0.14292482
8	0x3e137d56	0.1440328
9	0xbc71b370	-0.014752254
10	0x3e0491cb	0.1294624
11	0x3cf70d3a	0.030157674
12	0xbe574b9d	-0.21024938
13	0xbc3ef187	-0.011654264
14	0x3e85c11c	0.26123893
15	0xbea08869	-0.31354073

conv2.0.weight f4 [32, 16, 3, 3]
0	0x3c2e8cd5	0.010653694
1	0xb9bd6944	-0.00036127318
2	0x3d856065	0.065125264
3	0x3da575f8	0.080791414
4	0x3cc17590	0.023615628
5	0xbd7e874f	-0.06214076
6	0xbcb4195b	-0.021984747
7	0x3be271c8	0.0069105364
8	0xbd93c511	-0.07215322
9	0xbcae7a47	-0.02129854
10	0x3d6ee8ff	0.05832767
11	0x3d04a654	0.032385185
12	0xbcb225b1	-0.021746488
13	0xbd35bac9	-0.044367585
14	0x3d206d42	0.039166696
15	0xbd6cbc14	-0.057796553
16	0xbc90319a	-0.017601777
17	0xbd00994f	-0.031396206
18	0x3c548109	0.0129702175
19	0x3d58bbaa	0.052913345
20	0xbd436875	-0.04770704
21	0x3cb49cdf	0.022047458
22	0x3d7eae83	0.062178146
23	0x3ce19805	0.027538309
24	0x3cc064f2	0.023485634
25	0x3bd2b1e4	0.0064298976
26	0xbd36c54e	-0.04462176
27	0x3d693871	0.056938592
28	0x3d4a0cf2	0.04932875
29	0x3dad0f60	0.08450198
30	0xbbd1a54f	-0.00639788
31	0x3d9389c5	0.07204012
32	0xbc8d198d	-0.017224098
33	0xbda60ed0	-0.08108294
34	0x3d1f1333	0.03883667
35	0x3d3296ae	0.04360073
36	0xbd840ad8	-0.06447381
37	0x3da36739	0.079786725
38	0xbd49bcf4	-0.049252465
39	0x3da161d3	0.078799866
40	0xbd521e0e	-0.051298194
41	0xbb49cb35	-0.0030791287
42	0x3d53a58e	0.051671557
43	0x3d7e96e6	0.062155627
44	0x3cab051f	0.020876465
45	0xbd8185e2	-0.06324364
46	0x3d55dfa5	0.052215237
47	0x3d61b46a	0.055103697
48	0x3bef8557	0.0073095965
49	0xbd2b4e49	-0.041822705
50	0xbcd104d3	-0.025514996
51	0xbcf9d963	-0.030499166
52	0x3d81c8f8	0.0633716
53	0xbab009a8	-0.0013430612
54	0x3d4369fb	0.047708493
55	0x3d8f7021	0.07003809
56	0x3ba2fbec	0.004973879
57	0x3d4c63a8	0.049899727
58	0xbc14903a	-0.009067589
59	0x3dabd892	0.08390917
60	0x3c8c01ac	0.017090641
61	0xbda1212e	-0.07867657
62	0x3cce00c2	0.025146846
63	0x3d358e2b	0.044325035
64	0xbd41f538	-0.047353
65	0x3d88719f	0.066622965
66	0xbd846aab	-0.06465658
67	0xbd497163	-0.0491804
68	0xbbee6c3c	-0.007276086
69	0x3b5d3eff	0.0033759472
70	0x3c11af79	0.008891934
71	0x3d92202a	0.07135041
72	0x3d14ec10	0.03635794
73	0xbd33523a	-0.04377959
74	0xbd003ff6	-0.031310998
75	0x3d9629c7	0.07332187
76	0x3cd271a7	0.02568896
77	0xbd8130f1	-0.06308163
78	0xbd320bdf	-0.043468352
79	0x3cd3dcec	0.02586218
80	0x3d5d19c5	0.053979654
81	0x3d9dc4cf	0.07703554
82	0x3d80fc61	0.062981375
83	0x3d8910ee	0.06692682
84	0xbdae5d3d	-0.085138775
85	0xbd9f6434	-0.07782784
86	0xbc66f94a	-0.014097521
87	0x3c8723c8	0.016496554
88	0xbd45fbcc	-0.048335835
89	0xbcc5be2c	-0.024138533
90	0xbcbaf8af	-0.02282366
91	0xbcdb73ce	-0.026788618
92	0x3d09b725	0.033621926
93	0xbd82bbe1	-0.06383491
94	0xbd941516	-0.07230584
95	0x3d59a3e0	0.0531348
96	0x3d6b785f	0.05748784
97	0x3d3b077a	0.045661427
98	0xbca58c17	-0.020208402
99	0x3b3b92ad	0.002862136
100	0x3d89417e	0.06701945
101	0x3d3d65ea	0.04623977
102	0xbc5c9561	-0.013463349
103	0x3d008a49	0.03138188
104	0xbd201354	-0.039080933
105	0xbc87904f	-0.016548304
106	0x3cfd61eb	0.03093048
107	0xbc6975cc	-0.014249276
108	0xbd48b421	-0.04899991
109	0xbd0ea584	-0.034825817
110	0xbd33d8cd	-0.04390793
111	0x3ca679cc	0.02032175
112	0xbd1018c9	-0.035179887
113	0xbcbd5464	-0.02311153
114	0x3da0012b	0.07812723
115	0x3d5342c3	0.05157734
116	0x3d769885	0.060204048
117	0x3c9f3135	0.019432643
118	0x3ba5188a	0.0050383257
119	0x3902f098	0.00012487394
120	0x3d248948	0.040169984
121	0xbd93e51d	-0.07221434
122	0xbd84b082	-0.06478979
123	0xbd0866e4	-0.03330125
124	0x3d23b27f	0.03996515
125	0x3ca97141	0.020683886
126	0xbca7b687	-0.020472778
127	0xbd73fd52	-0.059567757
128	0x3c91993e	0.017773267
129	0xbd7c3976	-0.061578237
130	0xbda40a30	-0.080097556
131	0xbc72dded	-0.014823419
132	0xbd928fb8	-0.071563184
133	0x3ce9b37f	0.028527973
134	0xbcf6ff8a	-0.030151147
135	0x3c744346	0.014908617
136	0xbc3601f9	-0.011108869
137	0x3cf0e188	0.029404417
138	0x3d80500e	0.06265269
139	0xbd693c53	-0.056942295
140	0x3cb123c7	0.021623505
141	0x3d4f5846	0.050621293
142	0xbc504eee	-0.012714131
143	0xbd9519ed	-0.072803356
144	0xbd51ec17	-0.051250543
145	0x3cbdef00	0.023185253
146	0xbda8f255	-0.08249346
147	0x3da404db	0.080087386
148	0xbd5b7610	-0.05357939
149	0xbc9a80b7	-0.018860204
150	0x3d8dc8cf	0.06923067
151	0xbc490a6c	-0.012270551
152	0xbd2ba40a	-0.041904487
153	0x3d06b692	0.032888956
154	0x3cd1d5b8	0.025614604
155	0xbd468227	-0.048463967
156	0x3d68987c	0.056786045
157	0xbd968120	-0.073488474
158	0xbd25af44	-0.04045035
159	0x3c757243	0.014980855
160	0xbd392f65	-0.045211215
161	0xbd19f347	-0.037585523
162	0x3d72f29c	0.0593134
163	0xbbb4ca40	-0.005517274
164	0xbd9715d9	-0.07377214
165	0xbcdeeafd	-0.02721166
166	0xbd02aa78	-0.031900853
167	0x3d92fb91	0.07176889
168	0x3d96598e	0.073413
169	0x3db721ae	0.08941971
170	0xbd30db98	-0.04317817
171	0x3d38803f	0.04504418
172	0x3d960e74	0.073269755
173	0xbb595cea	-0.0033166953
174	0xbd8596b9	-0.06522889
175	0x3da6a347	0.081366114
176	0x3d2d0077	0.04223677
177	0x3cc48811	0.023990663
178	0x3d591083	0.052994262
179	0xbd946458	-0.072457016
180	0x3cc08564	0.023501106
181	0x3d5ca427	0.053867485
182	0xbd9f951f	-0.077921145
183	0x3c0c90dd	0.00857946
184	0xbd47462e	-0.048650913
185	0xbd467e6a	-0.0484604
186	0xbcb2b265	-0.02181358
187	0xbd8b391d	-0.06798003
188	0xbd8288a0	-0.063737154
189	0x3d5e3828	0.054252774
190	0xbd9af92b	-0.07567056
191	0xbd4419f6	-0.04787632
192	0x3d9def36	0.077116415
193	0xbcb9e37c	-0.02269148
194	0x3cfbaf34	0.030723192
195	0x3d8240ba	0.06360002
196	0xbd56798d	-0.052362014
197	0xbd9140b1	-0.07092417
198	0x3d58d8fb	0.052941304
199	0xbd10a1d7	-0.035310593
200	0xbbb89088	-0.005632464
201	0x3d738306	0.059451126
202	0xbc7c312b	-0.015392582
203	0xbd918806	-0.071060225
204	0x3d88cb84	0.066794425
205	0xbd2c5352	-0.042071648
206	0x3da1c121	0.078981645
207	0x3d6b9381	0.057513718
208	0xbdab74b6	-0.0837187
209	0x3d4d2389	0.050082717
210	0x3d6646ef	0.05621999
211	0xbc2f7ecb	-0.010711382
212	0x3d702257	0.0586265
213	0x3d88f299	0.06686897
214	0xbd8a5daa	-0.06756146
215	0xbd842677	-0.06452649
216	0xbd0e6ade	-0.034769885
217	0xbd5f1475	-0.05446287
218	0xbd6648e4	-0.056221858
219	0x3c8847ce	0.016635802
220	0xbbe0c547	-0.006859455
221	0xbd9d0d29	-0.07668526
222	0x3af8adbb	0.0018972674
223	0xbc8ba011	-0.017044099
224	0xbd97abce	-0.07405816
225	0xbd65867d	-0.05603646
226	0xbbcaca9a	-0.006188703
227	0x3d9f9948	0.07792908
228	0xbd082377	-0.033236947
229	0xbc67f716	-0.014158031
230	0xbc906ab8	-0.017629012
231	0x3acb5692	0.0015513471
232	0x3d88fd8d	0.06688986
233	0xbc135ec2	-0.00899476
234	0xbd5ec006	-0.054382347
235	0x3be80fdd	0.007081969
236	0xbdac445f	-0.08411478
237	0xbcf9d641	-0.030497672
238	0x3d8f62c7	0.07001262
239	0x3cb9547a	0.02262329
240	0xbd7b2443	-0.06131388
241	0xbd09e0e0	-0.033661723
242	0xbd8b5603	-0.06803515
243	0x3c89ec7e	0.016836401
244	0x3b8e297b	0.004338441
245	0x3d4c6fff	0.049911495
246	0x3aee2e47	0.0018171751
247	0x3c3e5973	0.011618006
248	0x3b98b1fe	0.00465989
249	0xbcd409f1	-0.025883647
250	0x3db1803b	0.08667036
251	0x3d7bfedc	0.06152235
252	0x3c317d03	0.010833028
253	0xbce1a486	-0.027544271
254	0x3c715cb5	0.014731576
255	0x3d523f28	0.05132976

conv2.0.bias f4 [32]
0	0xbd984008	-0.07434088
1	0x3d9d4ce5	0.07680682
2	0xbc9fb42c	-0.019495092
3	0xbd4b4d6b	-0.04963438
4	0xbd7c8984	-0.061654583
5	0xbda52249	-0.0806318
6	0x3d421a89	0.047388587
7	0xbd3f641a	-0.046726324
8	0x3d67124c	0.056413934
9	0x3da03c85	0.07824043
10	0x3d1c59e5	0.038171668
11	0xbdab0ebb	-0.08352419
12	0x3dada18a	0.08478077
13	0xbc3cced4	-0.011523921
14	0x3d88a041	0.06671191
15	0xbd4f5082	-0.050613888
16	0x3cea1daa	0.028578598
17	0x3c93a2dd	0.018021995
18	0x3c59e6fe	0.013299702
19	0x3c1c8908	0.009554155
20	0xbd11cd7f	-0.035596367
21	0xbd169615	-0.036764223
22	0x3c8d69b9	0.017262327
23	0x3b5be89d	0.0033555396
24	0x3d60db33	0.054896545
25	0x3d8e69ce	0.069537744
26	0xbd822695	-0.06355015
27	0xba8f4074	-0.0010929243
28	0x3bd91d00	0.0066257715
29	0xbc455035	-0.012043049
30	0xbc8bcf66	-0.017066669
31	0xbda16476	-0.078804895

conv3.0.weight f4 [64, 32, 3, 3]
0	0x3d4c3a11	0.049860064
1	0xbca4bfe0	-0.020111024
2	0x3d042071	0.0322575
3	0xbc646a7b	-0.013941403
4	0x3d7afd26	0.061276577
5	0xbd23ae51	-0.039961163
6	0xbd19b6fd	-0.037528027
7	0x3d0fabcc	0.035075948
8	0x3ccf13f0	0.025278062
9	0x3d0443ee	0.032291345
10	0x3be41d95	0.0069615343
11	0xbd1fc42c	-0.039005443
12	0x3bbc0be7	0.0057387236
13	0xbbdb0f5b	-0.00668518
14	0x3d80ecaa	0.0629514
15	0x3cca14aa	0.024668057
16	0xbd3377c0	-0.043815374
17	0x3d31fc40	0.043453455
18	0xbd3d6de9	-0.046247397
19	0xbc65a2ce	-0.014015866
20	0xbd28f1a2	-0.041246064
21	0x3d4ebdbe	0.05047392
22	0xbcaa386f	-0.020778863
23	0x3cfffc93	0.031248366
24	0xbc644ce3	-0.013934347
25	0x3c236233	0.009972143
26	0xbcf685ac	-0.030093037
27	0xbd464d40	-0.048413515
28	0xbc36fb83	-0.0111683635
29	0xbccdd544	-0.025126107
30	0xbcd42ca2	-0.025900189
31	0x3d53e015	0.051727373
32	0xbbccb894	-0.0062475894
33	0xbd2a5e54	-0.041593865
34	0xbd8422a8	-0.06451923
35	0xbd2a1735	-0.04152604
36	0xbcef4cb7	-0.029211385
37	0x3b093544	0.002093629
38	0xbd435b39	-0.04769442
39	0x3d2af7d6	0.04174026
40	0x3cc61d22	0.024183813
41	0x3ced4ba3	0.02896673
42	0xbd142948	-0.03617218
43	0xbc10cde1	-0.008838148
44	0xbd4554e8	-0.048176676
45	0xbd321f86	-0.043487094
46	0xbd1cf937	-0.038323607
47	0xbb7e65fa	-0.0038818107
48	0x3d7a78a7	0.06115022
49	0xbc26754b	-0.010159801
50	0xbc9d641c	-0.019212775
51	0x3d6413ac	0.055682823
52	0xbc1dd36e	-0.009632928
53	0xbcd6eb1a	-0.026235152
54	0xbcba7629	-0.022761421
55	0xbcfab3fa	-0.030603398
56	0x3d708616	0.058721624
57	0x3c1f73c6	0.009732192
58	0x3ceab030	0.028648466
59	0x3d21ee15	0.039533693
60	0x3c95e6d5	0.018298546
61	0xbd383cfa	-0.044980027
62	0x3d4ec3bc	0.050479636
63	0x3d07b6a6	0.03313317
64	0x3cb90258	0.022584125
65	0x3c14d5a6	0.009084141
66	0x3d7b561a	0.06136141
67	0x3d1bc72b	0.03803174
68	0xbd07a0d3	-0.03311236
69	0xbd4d151b	-0.050068956
70	0xbd263819	-0.040580843
71	0x3d0cac2c	0.034343883
72	0xbcc2e314	-0.02378992
73	0x3c2abd75	0.010421147
74	0xbd55a5f7	-0.05216023
75	0x3c685d5b	0.014182414
76	0xbd30b244	-0.043138757
77	0xbd265eac	-0.04061763
78	0x3c46f5ff	0.012143611
79	0xbba7a76f	-0.005116395
80	0x3b94a046	0.0045357076
81	0x3cc4ed25	0.02403886
82	0x3c9d9f2d	0.01924094
83	0x3b9f4de9	0.0048615825
84	0xbc093a0c	-0.008375656
85	0xbcb573b1	-0.022149893
86	0x3d2a5b0a	0.041590728
87	0xbce5df3f	-0.028060554
88	0x3d4d75df	0.05016124
89	0x3baf5fe9	0.0053520096
90	0xbcae3007	-0.021263136
91	0x3d470284	0.048586383
92	0x3d38c55d	0.045110095
93	0xbcca42fb	-0.024690142
94	0xbb37654f	-0.0027983969
95	0xba86ff9e	-0.0010299569
96	0x3cff1c0c	0.031141303
97	0xbbdbc4b4	-0.0067067984
98	0x3c4261be	0.011864124
99	0x3c1647a2	0.009172352
100	0x3d0aead2	0.03391535
101	0xbd138088	-0.03601125
102	0xbca6fd46	-0.020384442
103	0xbc51456e	-0.012772901
104	0x3c87631f	0.016526757
105	0x3b75d6dd	0.0037512102
106	0xbccd771f	-0.025081215
107	0x3d78a794	0.06070669
108	0x3d34eb28	0.044169575
109	0x3d4964d2	0.049168415
110	0xbd1d8e14	-0.038465574
111	0x3c74d57e	0.014943479
112	0x3d0270fe	0.03184604
113	0xbcdfec6e	-0.027334418
114	0x3d0ecefe	0.034865372
115	0xbd69cdb8	-0.057080954
116	0xbd1fd14a	-0.039017953
117	0x3b926810	0.0044679716
118	0x3c29fede	0.0103757065
119	0x3c64ee57	0.01397284
120	0x3d56d44e	0.052448563
121	0x3d12c003	0.035827648
122	0xbb84392f	-0.004035137
123	0xbd3b7073	-0.045761537
124	0xbc8f6a30	-0.017506689
125	0xbaae1044	-0.0013279994
126	0xbcdee0cd	-0.027206803
127	0xbd4a69e4	-0.04941739
128	0x3cd35ae5	0.025800178
129	0x3d1fc768	0.039008528
130	0x3cab58c0	0.020916343
131	0x3d0b5107	0.03401282
132	0x3c4b92ef	0.012425168
133	0x3bff1c02	0.007785321
134	0xbd098310	-0.033572257
135	0x3d43fb55	0.04784711
136	0x3cbfd20a	0.023415584
137	0x3d4b3b1e	0.049616925
138	0x3d0f513e	0.034989588
139	0x3d374d36	0.04475137
140	0xbc97d250	-0.018532902
141	0x3d3e3185	0.046433944
142	0x3c1030d0	0.0088007
143	0xbce13d3e	-0.027495023
144	0xbd02250d	-0.031773616
145	0x3c34bc9c	0.011031296
146	0x3d205fc9	0.039153848
147	0x3cd1d8cd	0.025616074
148	0x3d39f1b2	0.045396514
149	0x3d0338df	0.03203666
150	0x3b824f9f	0.0039767767
151	0x3d267a8a	0.040644206
152	0x3cb7f221	0.022454323
153	0xbcb62443	-0.022234088
154	0x3d423c9f	0.047421094
155	0x3c92cfba	0.017921317
156	0x3cbe008e	0.023193624
157	0xbd20365e	-0.03911435
158	0x3d0b293e	0.03397488
159	0x3d08fb5b	0.033442836
160	0x3ce374f9	0.027765738
161	0xbca83964	-0.020535178
162	0xbb3b875b	-0.0028614614
163	0xbd30ecbb	-0.043194514
164	0xbc0f1786	-0.008733636
165	0xbd3c4b05	-0.04596998
166	0xbd090206	-0.033449195
167	0x3b58f83d	0.0033106946
168	0x3c8838fb	0.016628733
169	0x3c5f167e	0.013616202
170	0x3bed172c	0.0072354283
171	0x3c7fdfab	0.015617291
172	0xbc0bf6f7	-0.008542768
173	0x3cad103f	0.02112591
174	0x3c7c08dc	0.015382972
175	0xbc658df2	-0.014010893
176	0x3d39d840	0.045372248
177	0xbcccf174	-0.025017478
178	0xbcca7905	-0.02471591
179	0xbc983af9	-0.018582808
180	0xbc2ae1e8	-0.010429837
181	0xbcd61ce1	-0.026136817
182	0x397e6766	0.00024261847
183	0xbd3fb491	-0.04680306
184	0x3d1d5c67	0.0384182
185	0x3bebadb1	0.0071923365
186	0x3d00fb3b	0.031489592
187	0xbd6f0b77	-0.058360543
188	0x3cb71e82	0.022353414
189	0xbd0a703d	-0.033798445
190	0xbd11a61b	-0.0355588
191	0xbce0a1c7	-0.027420891
192	0xbd205aee	-0.039149217
193	0x3d182194	0.037141398
194	0xbd06ce5b	-0.03291164
195	0x3ca7e06d	0.020492757
196	0xbc34cfc0	-0.01103586
197	0x3ce70b52	0.02820364
198	0xbc9f2d25	-0.019430706
199	0x3cc6bf32	0.02426109
200	0x3cd00870	0.025394648
201	0x3d4cfb4a	0.050044335
202	0xbd03eb93	-0.032207083
203	0x3ba78406	0.005112174
204	0xbc83f1ed	-0.01610657
205	0x3ac7d189	0.0015244941
206	0xbd65580f	-0.055992182
207	0x3d2ed5ac	0.042684242
208	0x3d103744	0.035208955
209	0xbd037d6c	-0.032102033
210	0xbb078cef	-0.0020683368
211	0x3d314c10	0.04328543
212	0x3d14cc12	0.03632743
213	0x3d544b0d	0.051829387
214	0xbb783cf4	-0.0037878128
215	0x3ca46a5f	0.020070253
216	0xbd120c7d	-0.03565644
217	0x3cc413fd	0.023935312
218	0x3d3b32ad	0.045702625
219	0xbc5e4177	-0.013565413
220	0xbd65e567	-0.05612698
221	0xbcebb000	-0.028770447
222	0x3c03ecc3	0.008052054
223	0x3d3f42c9	0.04669455
224	0x3ccb91bc	0.024849765
225	0xbd144cc7	-0.036206033
226	0xbbc16b99	-0.005902719
227	0x3c11493b	0.008867557
228	0x3d7e4b3a	0.06208346
229	0xbd3b71cd	-0.045762826
230	0xbc74f7e7	-0.014951683
231	0xbd1e3041	-0.038620237
232	0xbc5e9285	-0.013584738
233	0x3b3dffdb	0.0028991613
234	0x3a396284	0.000707187
235	0x3d528e82	0.051405437
236	0xbce5f287	-0.028069748
237	0x3d1cc752	0.038276024
238	0x3d0cb0f6	0.03434845
239	0x3d461833	0.048362922
240	0x3cc8186a	0.024425704
241	0x3d699bbc	0.057033285
242	0x3d054e12	0.032545157
243	0xbd7e0f8b	-0.06202654
244	0x3cffeb48	0.03124012
245	0xbc588a81	-0.013216616
246	0xbcad5706	-0.02115966
247	0xb924190f	-0.00015649594
248	0xbaf92928	-0.0019009458
249	0x3d085082	0.033279903
250	0xbd13af4c	-0.036055848
251	0xbd1b57d2	-0.03792555
252	0x3c68ffbd	0.014221129
253	0xbb54e226	-0.0032483428
254	0x3c6c16ec	0.014409762
255	0x3d07dccd	0.033169556

conv3.0.bias f4 [64]
0	0x3d0bf899	0.034172628
1	0x3c7ecbc2	0.015551509
2	0x3c96890c	0.018375896
3	0x3d478b36	0.048716746
4	0x3d677cc2	0.056515463
5	0x3d3dcac9	0.04633597
6	0xbd59e91a	-0.05320082
7	0xbc163548	-0.009167977
8	0x3c03ac35	0.008036663
9	0xbd14be0b	-0.03631405
10	0xbd2c73ac	-0.0421025
11	0x3d58555b	0.052815776
12	0xbc91dd10	-0.017805606
13	0xbc9f63db	-0.019456794
14	0x3ac7d6c2	0.0015246498
15	0x3d26fc00	0.04076767
16	0x3c3f7622	0.01168588
17	0x3d00345a	0.031299926
18	0x3d799040	0.060928583
19	0x3bb262c3	0.005443902
20	0xb8ef7f58	-0.00011420128
21	0xbc805f55	-0.015670458
22	0x3ca8ebb5	0.020620206
23	0x3d48b719	0.04900274
24	0x3c93a76d	0.01802417
25	0x3d5c461b	0.053777795
26	0x3d386a79	0.045023415
27	0xbc2980d2	-0.010345655
28	0xbcacda87	-0.021100296
29	0x3a458e5e	0.0007536168
30	0xbd691556	-0.056905113
31	0xbccb1127	-0.024788452
32	0x3cb8d348	0.022561684
33	0x3d27df92	0.040984698
34	0x3cc6b939	0.024258243
35	0xbd6d471a	-0.057929136
36	0xbd1cdd84	-0.03829719
37	0xbd7a9aea	-0.061182894
38	0xbd131b5f	-0.035914775
39	0xbd643241	-0.05571199
40	0x3d77886e	0.060432844
41	0x3ced5f5d	0.028976137
42	0x3d2fa832	0.042885013
43	0xbc2029d9	-0.009775602
44	0xbba5c7f3	-0.005059236
45	0x3cf63f8e	0.030059602
46	0xbb553d46	-0.0032537743
47	0x3cd7b737	0.02633248
48	0x3d539977	0.051660027
49	0x3d450e1e	0.048109166
50	0xbabef154	-0.0014567771
51	0x3c8f45f6	0.017489415
52	0xbd6594bb	-0.056050044
53	0x3c6ae011	0.014335648
54	0x3d3f4090	0.04669243
55	0x3d63c358	0.055606216
56	0xbcda9b4b	-0.026685378
57	0x3d89a443	0.067207836
58	0xbd3209f6	-0.04346653
59	0x3d232a95	0.03983553
60	0xbb55b672	-0.0032609967
61	0xbd405dbe	-0.0469644
62	0xbd18595f	-0.037194606
63	0xbc38c03c	-0.011276301

conv4.0.weight f4 [128, 64, 3, 3]
0	0xbd29a731	-0.04141921
1	0x3d23bfea	0.039977945
2	0xbc557f6e	-0.01303087
3	0x3ce9918b	0.028511783
4	0x3d0bad76	0.034100972
5	0xbaec29d6	-0.0018017839
6	0x3cd76531	0.026293369
7	0x3ccc0d1d	0.024908597
8	0x3cae2786	0.02125908
9	0x3cdc003f	0.026855586
10	0x3d14817c	0.0362563
11	0xbc08086b	-0.008302788
12	0xbbfa88a6	-0.0076456843
13	0x3cbd24ea	0.023088891
14	0x3b829c84	0.0039859433
15	0xbd0b8bab	-0.034068745
16	0x3c934ee7	0.01798196
17	0x3cabf1b8	0.020989284
18	0xbd480e35	-0.048841674
19	0xbc1d8fcf	-0.009616806
20	0xbc2afdfc	-0.010436531
21	0xbd1744b3	-0.03693075
22	0x3cd99f4f	0.026565222
23	0xbcc3ea9a	-0.023915578
24	0xbd100e23	-0.03516973
25	0xbc117fbb	-0.008880551
26	0xbcaddef4	-0.021224476
27	0xbd132623	-0.035925042
28	0xbc4098b4	-0.011755157
29	0xbc5deb91	-0.013544933
30	0x3cf1be76	0.029509764
31	0xbd333b24	-0.043757573
32	0x3cfddf2d	0.030990208
33	0x3d0c673f	0.03427815
34	0x3bda7c78	0.00666767
35	0xbc1a1d62	-0.0094064195
36	0x3c6e2e53	0.014537412
37	0xbcb9afc9	-0.022666829
38	0xbd1e441d	-0.038639177
39	0xbcfa0e6f	-0.03052446
40	0xbc243bab	-0.010023992
41	0xbc8fe977	-0.01756738
42	0xbc436f02	-0.011928322
43	0xbc2f1e6e	-0.010688407
44	0xbd00587d	-0.03133439
45	0x3bf5bb66	0.0074991463
46	0xbc47cbfa	-0.012194628
47	0x3ce6b6a2	0.028163258
48	0xbc9de89d	-0.019275958
49	0xba05baf7	-0.00051014073
50	0xbcc3bede	-0.023894724
51	0x3d01efed	0.03172295
52	0xbcefb4cb	-0.029261013
53	0xbb9d96ad	-0.0048092217
54	0x3d1278da	0.035759784
55	0x3d052564	0.03250636
56	0xbb41555c	-0.002950034
57	0xbcd01e2e	-0.025405016
58	0x3a6a2442	0.00089317944
59	0xbc28e994	-0.010309596
60	0xbd20ed53	-0.03928883
61	0x3cb4e05a	0.022079635
62	0x3becd3d8	0.007227402
63	0x3be5dd2c	0.007014891
64	0x3c408a64	0.011751745
65	0x3b40c333	0.0029413223
66	0x3d1aa50a	0.03775505
67	0xbc830be6	-0.015996885
68	0xbba30d58	-0.004975956
69	0x3d216a4f	0.039408024
70	0x3c3921e7	0.011299587
71	0x3d1c872a	0.03821484
72	0xbca5f688	-0.020259157
73	0xbc3db43f	-0.011578619
74	0x3d1fb859	0.038994167
75	0x3c063f45	0.008193796
76	0x3d1aa46c	0.03775446
77	0x3bb5cf38	0.005548384
78	0x3ca84eab	0.020545324
79	0x3cd34b4d	0.025792742
80	0xbb43968c	-0.0029844372
81	0x3c0dff25	0.008666788
82	0x3d14c247	0.03631809
83	0xbc2be896	-0.0104924645
84	0xbd08da74	-0.033411458
85	0xbcbe5b0e	-0.023236778
86	0xbc68d4eb	-0.01421092
87	0x3c98a2bc	0.018632285
88	0x3cc1ef7b	0.023673763
89	0x3c8a5e8b	0.016890785
90	0x3b896b60	0.0041937083
91	0x3ce4cb17	0.027928872
92	0xbc9aa2bc	-0.018876426
93	0xbd051dcc	-0.03249912
94	0x3c7212be	0.014774976
95	0xbd385d41	-0.04501081
96	0xbd095d17	-0.033536043
97	0x3ce4e737	0.027942283
98	0x3cb4db34	0.02207718
99	0xbd0e9233	-0.034807395
100	0x3cfbca7c	0.0307362
101	0x3cbf8b51	0.02338186
102	0x39eba780	0.0004494749
103	0x3c9ab051	0.018882902
104	0x3d0e8343	0.03479315
105	0xbd11313d	-0.035447348
106	0x3a9c007a	0.0011901997
107	0xbcba92f7	-0.022775156
108	0xbd230b98	-0.03980598
109	0xbb81a458	-0.003956359
110	0xbcd42845	-0.025898108
111	0xbd49498b	-0.0491424
112	0xbc81c678	-0.015841708
113	0xbc23f229	-0.010006466
114	0xbc0ea579	-0.008706444
115	0xb9173ec0	-0.00014423858
116	0x3c4af809	0.012388238
117	0xbcac92aa	-0.021066029
118	0xbc527955	-0.012846311
119	0xbd0c8414	-0.034305647
120	0xbba4cd26	-0.0050293384
121	0x3d20e0ff	0.039277073
122	0xbc9db3d0	-0.01925078
123	0x3d0627dc	0.032752857
124	0x3d181d49	0.037137304
125	0x3c8d1a39	0.017224418
126	0x3c5ffa1e	0.013670472
127	0x3cd275eb	0.025690993
128	0xbce91778	-0.028453574
129	0xba96ea0c	-0.0011513843
130	0xbd016c04	-0.031597152
131	0xbb6d78e9	-0.0036235398
132	0x3a931b18	0.0011223285
133	0xbc8b677a	-0.017017115
134	0x3d03a780	0.032142162
135	0x3c0e6d9c	0.008693125
136	0xbc4966de	-0.012292592
137	0x3b83e33a	0.0040248903
138	0xbccecd53	-0.02524439
139	0xbcc23f2e	-0.023711767
140	0x3cab3bfd	0.020902628
141	0xbb8acd54	-0.004235903
142	0x3c4d75d4	0.012540299
143	0x3cb59bb2	0.022168968
144	0x3cdfabc6	0.027303588
145	0xbc3be21c	-0.011467483
146	0xbd163098	-0.036667436
147	0xbd130268	-0.035890967
148	0xbcd1edff	-0.02562618
149	0xbd077efa	-0.03308008
150	0x3c63fe6e	0.013915641
151	0x3d3f009c	0.04663144
152	0xbcf3b16d	-0.02974769
153	0x3d17b7fd	0.0370407
154	0x3d1c6bf5	0.038188893
155	0xbcc634ae	-0.024195042
156	0xbce4c323	-0.02792508
157	0x3d3540fb	0.044251423
158	0x3c34a5ca	0.011025855
159	0xbce0b292	-0.027428899
160	0xbc84e3eb	-0.016221961
161	0xbd1904d2	-0.037358113
162	0x3c91bc38	0.017789945
163	0xbd1b2e5c	-0.03788601
164	0xbcda7ea4	-0.026671715
165	0x3c8ade23	0.016951626
166	0x386aa27a	5.5941266e-05
167	0xbcfb5a5f	-0.03068274
168	0xbd1efd39	-0.03881571
169	0x3ca8c952	0.02060381
170	0xbd0f9198	-0.03505096
171	0x3c93f938	0.018063173
172	0xbbf210bc	-0.007387249
173	0x3b8c3ce9	0.004279722
174	0x3d2dede9	0.042463217
175	0x3c0cef7b	0.0086020185
176	0x3cd5063f	0.026003955
177	0x3cb97242	0.02263749
178	0xbd1739b1	-0.036920253
179	0x3c646ed7	0.013942442
180	0xbc810a7d	-0.015752072
181	0x3cfd12f3	0.030892825
182	0xbd13bbef	-0.0360679
183	0x3d31fc82	0.0434537
184	0xbd1ae1be	-0.03781294
185	0x3a108a5d	0.0005513782
186	0x3d04e90a	0.032448806
187	0xbc998f26	-0.018745016
188	0x3d2732dd	0.04081999
189	0x3bd93047	0.0066280696
190	0x3d140d32	0.036145397
191	0xbcdb735d	-0.026788408
192	0x3d0a9a7e	0.03383874
193	0xbd123197	-0.035691824
194	0xbd3c9116	-0.046036802
195	0x3c29f7f4	0.010374058
196	0xbc8b6091	-0.01701382
197	0x3d17bddc	0.0370463
198	0x3c4b4ec4	0.012408916
199	0x3cb511b7	0.022103174
200	0x3c3d68db	0.011560644
201	0xbccf41d9	-0.025299953
202	0x3bb6e86d	0.0055819065
203	0x3d20f30f	0.0392943
204	0x3cf2ebf6	0.02965353
205	0x3d199892	0.037499018
206	0x3cf002ac	0.029298149
207	0x3d178db3	0.03700037
208	0x3cd783ec	0.026308022
209	0x3c912fd2	0.017722998
210	0x3c8e726b	0.017388543
211	0xbcc776da	-0.024348665
212	0xbb803de1	-0.0039136265
213	0xbd27f14b	-0.0410016
214	0x3c8d561b	0.017252972
215	0xbc7cf7a3	-0.015439901
216	0x3caa0c21	0.020757737
217	0xbc979a8e	-0.018506315
218	0x3ca83586	0.020533334
219	0xbc922acb	-0.01784267
220	0x3d1c642a	0.03818146
221	0xbb41cd25	-0.0029571739
222	0xbd1e8b2d	-0.038706947
223	0x3d360a74	0.044443563
224	0xbcb45100	-0.02201128
225	0x3cda13b0	0.026620716
226	0xbc3a4cfa	-0.011370892
227	0x3d0d63e0	0.034519076
228	0x3b817c26	0.003951567
229	0x3cc7eea7	0.02440579
230	0xbb9ee28e	-0.0048487848
231	0x3d4b0ec9	0.049574647
232	0xbccc62a0	-0.024949372
233	0xbd080c1e	-0.03321468
234	0xbae8312c	-0.001771485
235	0x3ac1796c	0.0014760918
236	0xbca92d09	-0.020651357
237	0xbc1f7639	-0.009732776
238	0xbc2ca29f	-0.010536819
239	0xbc6ac5fe	-0.014329432
240	0xbd1fa28a	-0.03897337
241	0xbc1023aa	-0.0087975655
242	0x3c07bcc9	0.008284756
243	0x3d0ee4e3	0.034886252
244	0x3cc5a240	0.024125218
245	0x3d121da0	0.035672784
246	0xbc140ad5	-0.009035786
247	0x3cfeeb45	0.031118045
248	0xbcd6445d	-0.026155645
249	0xba247216	-0.00062731036
250	0x3ce53de8	0.02798362
251	0xbcc94efd	-0.024573797
252	0x3ca7a823	0.020465916
253	0xbd2ef4ae	-0.042713813
254	0xbd063e3b	-0.03277419
255	0xbb8dca3c	-0.0043270867

conv4.0.bias f4 [128]
0	0x3d19203c	0.037384257
1	0x3cf2d377	0.02964185
2	0x3c92fd42	0.017943028
3	0xbc899d0c	-0.016798519
4	0xbcfcf7d0	-0.030879885
5	0xbd0d60ff	-0.03451633
6	0x3cc9c698	0.02463083
7	0x3c29fccb	0.010375212
8	0x3aad965d	0.0013243664
9	0xbb6279d4	-0.0034557479
10	0xbaa15bf4	-0.0012310729
11	0x3d0f1a44	0.03493716
12	0xbc81b3fb	-0.015832892
13	0x3c4e0a0e	0.012575639
14	0xbc00ec7c	-0.007868882
15	0xbd0b1fac	-0.03396575
16	0xbd3dd60e	-0.046346717
17	0x3cc07a9d	0.023495967
18	0xbcbaa7a7	-0.022785021
19	0x3d1c53a7	0.038165715
20	0xbba0d725	-0.0049084597
21	0xbc859f4e	-0.016311314
22	0xbc103ef1	-0.008804069
23	0x3d0916db	0.033469062
24	0x3ccb775e	0.024837192
25	0xbd096816	-0.03354653
26	0x3c575e04	0.013144974
27	0x3cdc37fe	0.026882168
28	0xbd3469f5	-0.04404636
29	0xbc9e961b	-0.019358685
30	0xbcf2b3db	-0.029626777
31	0x3bc98617	0.006150018
32	0x3bbb8fec	0.005723944
33	0xbb8c2480	-0.004276812
34	0x3d11884f	0.035530385
35	0xbceed2e1	-0.02915329
36	0x3d00ee25	0.031477112
37	0xbcaafe66	-0.02087326
38	0x3cc46181	0.023972275
39	0x3c8cc81f	0.017185269
40	0xbcee7879	-0.02911018
41	0x3ce23e69	0.02761765
42	0x3cd5e25a	0.02610891
43	0x3d141d40	0.036160707
44	0xbc07ec0b	-0.008296023
45	0x3b99c400	0.0046925545
46	0xbd09fe6d	-0.033689905
47	0x3c55cf83	0.013049963
48	0xbce5d693	-0.028056419
49	0xbc8c22e5	-0.017106483
50	0x3cdc87ab	0.02692016
51	0xbcfb4564	-0.030672736
52	0x3cbb60aa	0.022873241
53	0xbb278b1b	-0.002556509
54	0xbcf7b017	-0.030235333
55	0xbcb861d6	-0.02250759
56	0xbc84a6d2	-0.016192827
57	0xbd183516	-0.03716
58	0xbc87ff24	-0.016601153
59	0x3b90cbd3	0.004418829
60	0xbb005bba	-0.0019585923
61	0xbcf95399	-0.03043537
62	0xbb8be934	-0.0042697433
63	0xbce2ef08	-0.02770187
64	0x3cec6691	0.028857501
65	0x3ceb44ff	0.028719423
66	0xbaa0657e	-0.0012237278
67	0x3ba9c00c	0.0051803645
68	0xbc35daf3	-0.011099565
69	0x3ce79015	0.028266946
70	0x39ef2d4e	0.00045619387
71	0xbb4bd750	-0.0031103678
72	0x3bce2977	0.006291564
73	0x3b54800e	0.003242496
74	0xbcec4139	-0.028839694
75	0xbcab981c	-0.020946555
76	0xbb21c119	-0.0024681746
77	0xbc3a3e09	-0.011367329
78	0xbce33431	-0.027734848
79	0x3c1fc9c1	0.009752692
80	0xbbf59b9e	-0.0074953577
81	0x3bb49623	0.0055110618
82	0xbbd77aaf	-0.0065759043
83	0xbcf71671	-0.030162068
84	0x3c059686	0.008153563
85	0x3c917e2c	0.017760359
86	0xba4ab7b1	-0.00077330606
87	0xbd305349	-0.043048177
88	0x3d1475b7	0.036245074
89	0x3d231041	0.039810423
90	0x3c4e7d64	0.012603138
91	0xbcd2b73d	-0.02572214
92	0xbc81aff8	-0.015830979
93	0x3a426a15	0.000741632
94	0x3c00e509	0.007867106
95	0xbbe07021	-0.0068493043
96	0x3ca9072f	0.020633308
97	0xbc78bbd0	-0.015181497
98	0xbd0cd8c0	-0.034386396
99	0xbd14c0c7	-0.03631666
100	0x3c005249	0.007832118
101	0x3c8b86f2	0.01703212
102	0x3d1c8186	0.03820946
103	0x3abd6807	0.0014450558
104	0xbd25459f	-0.0403496
105	0x3b72946c	0.0037014736
106	0xbcc5e169	-0.024155336
107	0xbc60b68c	-0.013715398
108	0x3ceebf83	0.029144054
109	0xbd29c752	-0.041449852
110	0xbc0b2367	-0.008492327
111	0xbcf68a18	-0.030095145
112	0x3d0995b1	0.033590022
113	0x3d16a7fe	0.036781304
114	0xbc0f689f	-0.008752971
115	0xbaf653a6	-0.001879324
116	0xbba7346a	-0.005102684
117	0xbcbd7390	-0.023126394
118	0x3cabbbef	0.020963637
119	0xbc9aefac	-0.018913113
120	0x3b9907e2	0.004670129
121	0xbb4f2d86	-0.0031612827
122	0x3cb0befc	0.021575443
123	0xbcfc2ab1	-0.030782076
124	0x3be10b74	0.0068678204
125	0x3ce6b46a	0.0281622
126	0x3d073278	0.033007115
127	0xbc424c12	-0.011858957

linear.weight f4 [2, 1280]
0	0xbaf4155a	-0.0018622086
1	0xbc195645	-0.009358947
2	0xbb0691d1	-0.002053369
3	0x3b5c32aa	0.0033599534
4	0x3c834485	0.016023884
5	0xbcd0f7db	-0.025508812
6	0x3cabb367	0.02095957
7	0x3b807862	0.0039206007
8	0xbc142aec	-0.0090434365
9	0xbcf26af8	-0.029592022
10	0xbbbe3b3e	-0.005805402
11	0xbcd55e9e	-0.026046094
12	0x3c874222	0.016511027
13	0xbc91c676	-0.017794829
14	0x3ccba809	0.024860399
15	0x3c6d69d1	0.014490561
16	0x3cb2b04a	0.021812577
17	0x3cc05162	0.023476306
18	0xbcfb1bb7	-0.030652864
19	0x3c85ad3b	0.016317954
20	0x3a04a32c	0.0005059715
21	0x3cc3e2c6	0.023911845
22	0x3d030622	0.03198827
23	0xbc442ab7	-0.011973075
24	0x3cb888d5	0.022526184
25	0x3c92ba54	0.017911114
26	0xbca3b1e6	-0.01998229
27	0xbcf9eaef	-0.030507533
28	0x3cc7c47b	0.024385681
29	0x3c6bc99c	0.014391329
30	0xbc9767be	-0.018482085
31	0xbd0bd1c6	-0.034135602
32	0xbcdc66d2	-0.026904497
33	0x3cbdec12	0.023183856
34	0x3caebfa2	0.021331612
35	0xbb2fcf3c	-0.0026826402
36	0x3c500513	0.012696522
37	0x3cc0c905	0.023533354
38	0x3c73d30f	0.014881863
39	0x3ba956f9	0.0051678387
40	0xbc91dcf4	-0.017805554
41	0xbb422196	-0.002962207
42	0xbbf48ef2	-0.0074633295
43	0x3c2df11c	0.010616567
44	0x3c766f3a	0.015041167
45	0xbc8e02c5	-0.017335305
46	0x3c287fe0	0.010284394
47	0xbce4ec47	-0.027944697
48	0xbbab07b0	-0.0052194223
49	0xbd0ce255	-0.034395535
50	0x3b73f24e	0.0037223282
51	0xbce98bcc	-0.028509043
52	0x3c4bef82	0.01244724
53	0xbca713d4	-0.020395197
54	0xbcff95f9	-0.031199442
55	0xbc5f86a2	-0.013642939
56	0xbc57aff8	-0.013164513
57	0x3cbf1b12	0.023328338
58	0xbbb1d8c1	-0.0054274504
59	0xbc8d99b5	-0.017285207
60	0xbc8b9f95	-0.017043868
61	0xbae7e9af	-0.0017693545
62	0xbc5c8aa8	-0.013460793
63	0x3be2518c	0.006906694
64	0xbb8262b4	-0.0039790515
65	0x3cab83fb	0.020936957
66	0x3c027f7a	0.007964963
67	0x3cdab9ec	0.026699983
68	0xbcb4afb5	-0.02205644
69	0x3bc1dfd6	0.005916576
70	0xbcae32fd	-0.021264547
71	0x3bad121b	0.0052816994
72	0x3d034a00	0.032052994
73	0xba741b18	-0.00093118986
74	0x3cbb49f7	0.022862418
75	0xbce74ee2	-0.028235856
76	0x3bf8da05	0.0075943493
77	0xbb530578	-0.0032199305
78	0x3c796216	0.015221139
79	0x3c854dff	0.016272543
80	0x3c61dcc8	0.0137855485
81	0x3c333b86	0.010939484
82	0x3b835c9e	0.0040088436
83	0x3c5ad81e	0.01335719
84	0x3bde17f5	0.0067777582
85	0x3bd9dff7	0.006649013
86	0x3b7a9fa6	0.003824213
87	0xbaf6cd0b	-0.0018829418
88	0xbc385074	-0.01124965
89	0x3c8eeb06	0.017446052
90	0x3c48cc45	0.012255733
91	0x3d093a30	0.033502758
92	0xbca12fbf	-0.019676087
93	0x3c8c4da8	0.017126873
94	0x3c6d8ed3	0.014499384
95	0xbca10739	-0.019656764
96	0xbaf5d498	-0.0018755374
97	0xbb835855	-0.0040083327
98	0xb9bb2b92	-0.00035699882
99	0xbc066481	-0.008202673
100	0x3911aee9	0.00013893437
101	0xbc5b831e	-0.01339796
102	0xbca401e2	-0.020020429
103	0xbb79578a	-0.0038046562
104	0xbcaa0b6d	-0.020757401
105	0x3cad4f60	0.021156013
106	0xbc9b0d11	-0.018927129
107	0xbb066b08	-0.0020510573
108	0x3bd2c7c6	0.0064325063
109	0xbc4da014	-0.012550373
110	0x3d06571f	0.03279793
111	0x3caeffa2	0.02136213
112	0xbc8f75b6	-0.017512184
113	0x3c18e048	0.009330817
114	0xbcea63d6	-0.028612059
115	0xbce4496f	-0.027867047
116	0xbc35da2d	-0.01109938
117	0x3caa9e59	0.02082746
118	0xbc96560a	-0.018351573
119	0x3bbd9bcd	0.005786395
120	0x3c7d8a04	0.0154748
121	0xbb847e87	-0.0040434035
122	0xbceef87b	-0.02917122
123	0xbb8597b2	-0.0040769214
124	0x3cea641d	0.02861219
125	0xbce9327c	-0.028466456
126	0xbc56f3fb	-0.013119693
127	0xbcd77a19	-0.026303338
128	0xbcab02fe	-0.02087545
129	0x3b98c87a	0.0046625705
130	0xbcb22f5e	-0.021751102
131	0x3c94d965	0.018170068
132	0xbca8253d	-0.02052557
133	0x3c820316	0.015870612
134	0xbd0139be	-0.031549208
135	0xbc29f61e	-0.01037362
136	0xbba3eea2	-0.0050028125
137	0xbc97a859	-0.018512892
138	0x3ce226e9	0.027606444
139	0xbc722c56	-0.014781078
140	0xbc58f04e	-0.013240887
141	0x3ba555f0	0.005045645
142	0x3cf6c85e	0.03012484
143	0x3b834071	0.0040054847
144	0x3b5c5051	0.0033617208
145	0xbca5dc47	-0.020246638
146	0xbc1b4534	-0.0094769485
147	0xbcb62561	-0.02223462
148	0x3c74183e	0.014898358
149	0xbcb0c910	-0.02158025
150	0x3c87f703	0.016597277
151	0x3c7ff644	0.015622679
152	0x3cc1de9e	0.023665722
153	0xbc348f94	-0.01102056
154	0xbd08040e	-0.03320699
155	0xbb804062	-0.003913925
156	0x3c85a934	0.016316034
157	0xbc7e7d59	-0.015532815
158	0xbb9487af	-0.0045327763
159	0x3ba225d1	0.0049483557
160	0x3cdbad49	0.026816027
161	0xbc28f7ed	-0.010313016
162	0x3c934974	0.017979361
163	0x3be3c58c	0.0069510397
164	0xbb9399c0	-0.0045044124
165	0xbd00a136	-0.031403743
166	0xbbfaf093	-0.007658073
167	0xbbb5355e	-0.0055300435
168	0xbc1c7468	-0.009549238
169	0x3c792984	0.015207652
170	0xbcb42fa7	-0.021995379
171	0x3b4ed354	0.0031559067
172	0xbc8cf869	-0.017208295
173	0x3cc45ddf	0.023970542
174	0xb9e67601	-0.00043956938
175	0x3b13dcf6	0.0022562123
176	0x3ae722a5	0.0017634226
177	0x3cd181c8	0.02557458
178	0x3cc1176e	0.023570742
179	0xbcafeb9f	-0.021474658
180	0x3ce63930	0.028103441
181	0x3d1006a2	0.035162576
182	0x3ca02b19	0.0195518
183	0x3cdeacd6	0.027182024
184	0x3c6039bc	0.01368564
185	0x3be622bb	0.007023183
186	0xbcd898e5	-0.026440093
187	0xbc913c52	-0.017728958
188	0xbcd616ca	-0.026133914
189	0x3be1d442	0.006891758
190	0x3b91c067	0.004447985
191	0xbcc3b363	-0.02388925
192	0xbc7692fd	-0.015049693
193	0xbc8829f0	-0.01662156
194	0x3caafd0f	0.02087262
195	0xbc515e48	-0.012778826
196	0x3cb0f6d6	0.021602076
197	0x3b4afa1d	0.0030971833
198	0x3b84c4d3	0.0040517836
199	0x3cc5705e	0.024101432
200	0x3cf8144b	0.030283114
201	0x3c9bc7ce	0.019016173
202	0x3c6a1c9a	0.014289046
203	0xbca2d846	-0.019878518
204	0xbca6c307	-0.020356668
205	0x3c405da6	0.0117410775
206	0x3d10476e	0.03522437
207	0x3b75db9c	0.003751493
208	0xbc9e418a	-0.01931836
209	0x3b98d8a0	0.0046644956
210	0x3bd8b659	0.0066135344
211	0xbc9ad7a5	-0.018901655
212	0xbafecc00	-0.0019439459
213	0x3c9da3b4	0.019243099
214	0xbc7fed3b	-0.015620525
215	0x3c3208f4	0.010866392
216	0x3c950f9e	0.018195923
217	0x3c80fbd6	0.015745085
218	0xbbd4aeda	-0.0064905705
219	0xbc938c63	-0.018011278
220	0x3c76802b	0.015045206
221	0x3b87d9f4	0.004145855
222	0xbbcbbdb4	-0.0062176827
223	0x3c2bc68d	0.01048435
224	0xbc537867	-0.012907124
225	0xbb23b664	-0.002498054
226	0x3c8c4647	0.017123355
227	0xbc970cb3	-0.018438673
228	0xbd0ea3e7	-0.03482428
229	0x3cd7b780	0.026332617
230	0xbb34e188	-0.0027600247
231	0xbcb187bb	-0.021671167
232	0xbcbbb949	-0.0229155
233	0xbbb45bd0	-0.005504109
234	0x3bd96a4c	0.006634986
235	0x3cb2d059	0.021827864
236	0x3ceb322d	0.02871045
237	0xbd0a42de	-0.033755176
238	0xbcb3d137	-0.021950347
239	0x3d055c48	0.03255871
240	0xb9ce0e4f	-0.00039302043
241	0xbc62658d	-0.013818157
242	0x3b8e1a1a	0.0043366076
243	0xbc8180a1	-0.015808405
244	0xbcb48a9c	-0.02203875
245	0xbca14926	-0.0196882
246	0xbc0cf37d	-0.008602974
247	0x3b0e415a	0.0021706433
248	0xbcd68fe0	-0.026191652
249	0xbc8d7b54	-0.017270721
250	0x3c6948e2	0.014238568
251	0xbcce421e	-0.025178012
252	0x3c598138	0.013275437
253	0xbc02df71	-0.007987843
254	0xbd0b0358	-0.033938736
255	0xbc88e7b7	-0.016712053

linear.bias f4 [2]
0	0xbcb78702	-0.022403244
1	0x3ccf3251	0.025292547
